convnet/model.pt (torch, 167239 bytes, 6 tensors)

conv_relu_stack.0.weight f4 [32, 3, 3, 3]
0.13811749 -0.16629246 -0.101933755 -0.026491772 0.0031366707 -0.086850196 0.24654464 0.10846277
0.081382565 0.11485435 0.08867694 -0.18785943 0.24857165 0.06528259 -0.05992228 0.1671043
0.017094752 0.00749892 0.045683496 -0.109009534 0.04919161 0.0841759 0.0783523 0.109258674
0.15291306 -0.035770535 0.16393776 0.103271805 -0.12607141 -0.11716351 -0.046170417 -0.09460365
-0.11136851 -0.017120637 0.14387965 -0.122769065 -0.07812154 -0.08038307 -0.12023464 0.21658638
-0.011234367 0.12841517 0.2138567 0.18462537 -0.020563627 0.09896031 -0.05767273 0.16186649
0.0948296 0.14975129 0.17338723 0.21779226 0.29734015 0.083048716 0.070090815 -0.09560048
0.24760771 0.20781226 0.19563888 0.13411523 0.058648936 -0.16798079 -0.051202983 0.13892266
0.2089544 -0.04346186 -0.15754053 -0.062444616 -0.015900701 -0.19489253 0.11557246 0.0862752
0.024159271 -0.14021812 0.04282854 0.05673383 -0.04187826 -0.006748294 -0.15220635 -0.11101925
-0.11766084 -0.13563666 0.034405846 -0.23647334 0.15811235 0.08895549 -0.24909562 0.15213315
-0.14840941 -0.08417961 0.12444388 -0.08653409 0.14884494 0.28404886 0.14837383 0.07756361
0.20416492 -0.035198905 0.048774846 0.25886354 0.1912882 -0.075686455 -0.01838848 0.05562253
0.27836984 0.30768177 0.24007894 0.2738752 0.1523723 0.20315057 0.26122773 0.22538185
0.29481563 0.1977491 -0.051495302 0.28665745 0.11974652 0.20590563 0.19926006 0.029118743
0.22989547 0.19314688 0.06231152 0.13232991 -0.05294587 0.21894239 -0.08380043 -0.01118063
0.12487151 0.16669762 -0.04661874 0.056742366 0.027421314 0.07578292 -0.15824963 0.154295
-0.14910302 -0.15573128 0.06004918 -0.16667154 0.10609957 0.061881352 -0.10225993 -0.16675715
-0.083219446 -0.04839938 0.14281552 -0.083361365 0.14174692 -0.04244995 -0.08021368 -0.06993857
0.012983989 0.10494109 -0.06802855 -0.045979787 -0.023131296 -0.13044533 0.12005017 -0.11118782
-0.109347776 0.06692825 -0.15424357 -0.13856502 -0.13578378 -0.114129394 0.033564173 -0.16553509
-0.14569691 0.013709893 -0.11049202 -0.01206363 0.12217348 0.036563892 0.12466274 0.30569357
0.301203 0.26131085 0.32236564 0.30679277 -0.18272476 0.09073053 0.05799383 -0.12485029
0.10569633 0.07956446 0.20346603 0.07494876 -0.084135585 0.37284613 0.4285598 0.12756094
0.2676401 0.30406025 0.38884524 0.35470343 0.3783714 0.37389496 0.19839494 0.2188096
0.12362204 0.26283798 0.1655186 0.17984335 0.00878772 0.09904998 0.040211514 -0.0023289684
0.05327253 0.054361537 0.07912286 -0.06237866 -0.14622949 -0.12855919 0.052917838 -0.077169456
-0.100913756 -0.029440122 0.16573507 -0.09089663 0.10460434 0.09848074 -0.09021657 0.015656387
-0.23131931 0.2632337 0.18596192 0.01854041 -0.11203372 -0.0320101 -0.04549322 -0.22559692
0.06271259 -0.19824286 0.44450206 0.3480791 0.4072397 0.3490999 0.42067596 0.18974894
0.22040883 0.14429958 0.3079819 0.18288438 0.297768 0.087811254 0.009766194 -0.1478641
0.0422459 -0.21601371 -0.13771513 0.0069511603 0.21663141 0.054605518 0.18732192 0.06517901
00000000: ac6e 0d3e 9248 2abe a5c2 d0bd 4605 d9bc
00000010: 9a90 4d3b 84de b1bd 3376 7c3e bb21 de3d
00000020: e7ab a63d c238 eb3d 419c b53d 395e 40be
00000030: 9189 7e3e e1b2 853d 1171 75bd 641d 2b3e
00000040: 4b0a 8c3c 80b9 f53b 9e1e 3b3d 6440 dfbd
00000050: 247d 493d 6a64 ac3d 2c77 a03d 03c3 df3d
00000060: 3e95 1c3e 2084 12bd 4ddf 273e 2b80 d33d
00000070: dd18 01be 6cf3 efbd 311d 3dbd 8fbf c1bd
00000080: 2c15 e4bd 9440 8cbc 3055 133e 596e fbbd
00000090: 30fe 9fbd e19f a4bd 943d f6bd d2c8 5d3e
000000a0: 5a10 38bc 447f 033e 40fd 5a3e 6f0e 3d3e
000000b0: 0d75 a8bc b4ab ca3d 3e3a 6cbd 54c0 253e
000000c0: 0536 c23d 6758 193e 6c8c 313e ef04 5f3e
000000d0: f83c 983e 7215 aa3d c68b 8f3d 2fca c3bd
000000e0: e08c 7d3e bdcc 543e 8f55 483e 8155 093e
000000f0: de39 703d 2803 2cbe 38ba 51bd be41 0e3e
00000100: 24f8 553e 1005 32bd 4e52 21be edc5 7fbd
00000110: 3042 82bc e891 47be 41b1 ec3d 0db1 b03d
00000120: aae9 c53c 5795 0fbe fb6c 2f3d bc61 683d
00000130: 8a88 2bbd cb20 ddbb fbdb 1bbe 0f5e e3bd
00000140: 2bf8 f0bd 56e4 0abe 25ed 0c3d 1126 72be
00000150: 34e8 213e 4c2e b63d ec12 7fbe cbc8 1b3e
00000160: a3f8 17be 5c66 acbd 6fdc fe3d c938 b1bd
00000170: cf6a 183e da6e 913e 4fef 173e acd9 9e3d
00000180: 9c10 513e ba2c 10bd 22c8 473d c389 843e
00000190: 0ee1 433e 8001 9bbd 70a3 96bc 73d4 633d
000001a0: 7e86 8e3e 7788 9d3e 41d7 753e 5f39 8c3e
000001b0: 7c07 1c3e b406 503e a4bf 853e 80ca 663e
000001c0: 13f2 963e bd7e 4a3e bdec 52bd c4c4 923e
000001d0: aa3d f53d edd8 523e d40a 4c3e 6e8a ee3c
000001e0: b869 6b3e 4cc8 453e 5d3a 7f3d 7e81 073e
000001f0: c5dd 58bd 6f32 603e 8f9f abbd f62e 37bc
00000200: a2bc ff3d c8b2 2a3e 4bf3 3ebd af6a 683d
00000210: aaa2 e03c 1334 9b3d 310c 22be 82ff 1d3e
00000220: 76ae 18be 0578 1fbe 21f6 753d f2ab 2abe
00000230: bb4a d93d 4d77 7d3d a76d d1bd 63c2 2abe
00000240: f56e aabd 6e3e 46bd 3b3e 123e 5db9 aabd
00000250: 1b26 113e 00e0 2dbd 1247 a4bd f43b 8fbd
00000260: ccba 543c 5beb d63d 8d52 8bbd 4d55 3cbd
00000270: d87d bdbc 7693 05be dddc f53d 71b6 e3bd
00000280: baf1 dfbd ae11 893d 07f2 1dbe fde3 0dbe
00000290: e70a 0bbe acbc e9bd 967a 093d 0882 29be
000002a0: 9231 15be 769f 603c a449 e2bd 88a6 45bc
000002b0: 1736 fa3d 05c4 153d 2e4f ff3d de83 9c3e
000002c0: 4837 9a3e 89ca 853e 1c0d a53e f113 9d3e
000002d0: 331c 3bbe eed0 b93d f08a 6d3d 82b1 ffbd
000002e0: 5177 d83d b1f2 a23d 6659 503e bc7e 993d
000002f0: 474f acbd b0e5 be3e 316c db3e 569f 023e
00000300: 2008 893e c9ad 9b3e b916 c73e b09b b53e
00000310: e5b9 c13e 296f bf3e 0b28 4b3e a00f 603e
00000320: 8d2d fd3d b392 863e b57d 293e db28 383e
00000330: 5ffa 0f3c b7da ca3d d4b4 243d 9ba1 18bb
00000340: 4c34 5a3d 34aa 5e3d 2b0b a23d c480 7fbd
00000350: 2fbd 15be 05a5 03be 60c0 583d 050b 9ebd
00000360: dfab cebd 692c f1bc 74b6 293e 0328 babd
00000370: cd3a d63d 45b0 c93d 77c3 b8bd d341 803c
00000380: f8de 6cbe 91c6 863e cd6c 3e3e 0fe2 973c
00000390: ef71 e5bd 061d 03bd 1957 3abd e102 67be
000003a0: 756f 803d 2d00 4bbe c695 e33e 6c37 b23e
000003b0: b981 d03e 39bd b23e d762 d73e 8c4d 423e
000003c0: dab2 613e 45c3 133e ceaf 9d3e 0b46 3b3e
000003d0: 0c75 983e 63d6 b33d 6302 203c b069 17be
000003e0: 090a 2d3d b332 5dbe 3205 0dbe 8fc6 e33b
000003f0: a0d4 5d3e 09aa 5f3d 51d1 3f3e 937c 853d

conv_relu_stack.0.bias f4 [32]
0.0006733808 0.023032712 0.10066961 0.0024077508 -0.00029881927 -0.1174092 -0.021436282 -0.52717656
-0.039719746 0.08436474 -0.030590955 0.0504419 -0.014597074 -0.027932607 0.009896127 0.03447911
-0.0003409721 -0.036201477 0.06022814 -0.062363293 0.15773737 0.04124075 -0.13173825 0.0034828463
0.28682235 0.012238073 -0.4192977 -0.16694754 0.26219076 0.17021067 0.1286296 0.07356593
00000000: d285 303a 19af bc3c de2b ce3d 5bcb 1d3b
00000010: d8aa 9cb9 3c74 f0bd 249b afbc 0bf5 06bf
00000020: 2cb1 22bd 6cc7 ac3d e299 fabc 2a9c 4e3d
00000030: 9128 6fbc ecd2 e4bc 5d23 223c f839 0d3d
00000040: 80c4 b2b9 0048 14bd c8b1 763d a770 7fbd
00000050: e885 213e 10ec 283d 64e6 06be 7740 643b
00000060: 61da 923e 3382 483c 30ae d6be 4cf4 2abe
00000070: de3d 863e b54b 2e3e 7ab7 033e bca9 963d

conv_relu_stack.3.weight f4 [32, 32, 3, 3]
-0.028957117 0.024793647 -0.020911086 -0.03221811 0.027601242 0.05392012 -0.034469735 -0.010451565
0.041563027 -0.04594988 -0.0573641 0.06902831 0.019041605 -0.0013486334 -0.016796816 0.0338625
0.023535483 0.04292476 0.024390254 0.025687246 0.03719253 0.04216534 -0.01480111 0.0036909126
0.011063172 0.045265395 0.011786851 -0.024070643 0.010535679 0.034861643 -0.056820568 -0.0261616
0.019925296 -0.078763634 -0.04384409 0.04319066 -0.048679873 0.037734836 0.15039262 0.014202563
0.024569634 0.10450021 -0.061181847 -0.06060972 0.054099403 0.00281788 -0.044641662 0.0015447843
0.051721737 -0.004956802 -0.011408502 0.01255193 -0.024364851 -0.0093006445 0.022239784 -0.01183456
0.01746954 -0.035112444 -0.06336291 0.08780654 -0.03608482 0.021580841 -0.021134885 -0.08469569
-0.11401895 -0.019546084 -0.071848206 -0.118929595 0.00996351 -0.13270211 -0.14685304 0.031263366
-0.092501454 -0.05358674 0.0010513284 -0.0700335 -0.039460033 0.08450629 -0.124139994 -0.06478724
-0.006732929 -0.012259384 0.0171395 0.028804544 0.049307216 -0.016051024 -0.031489167 0.047721226
-0.013860949 -0.0065833163 -0.05926907 -0.03458042 -0.058382925 -0.09338172 -0.046530753 0.0034656916
-0.049750578 -0.08378344 -0.070530154 -0.06973494 0.03325932 0.037031718 -0.0652331 -0.036362775
0.041350108 -0.05955154 0.030533811 0.07057736 -0.044086732 -0.0077856593 -0.047613937 -0.012857508
-0.052033238 0.040893506 0.0060341675 -0.010387195 0.0061208047 0.008826772 0.03747288 0.022032583
0.0012160483 0.011458159 -0.012242588 -0.013913683 0.03630412 0.009706253 -0.0046779215 -0.04246314
-0.013435365 -0.04693633 -0.025478031 -0.06725577 -0.029624695 -0.014371142 -0.010863052 0.022254286
0.058368146 0.057888925 -0.029337544 0.022346037 0.11109734 -0.027691016 -0.0020671436 0.09941595
-0.030306073 -0.016084477 0.047353353 -0.03414173 -0.066936776 0.091673516 -0.062176418 -0.046724044
0.08584111 -0.052296907 -0.023374086 0.026570888 -0.04599373 0.024406588 0.030876854 0.029658379
-0.0534985 0.027467627 0.024358865 -0.01802808 -0.0055148546 0.021397306 0.061220154 -0.016245842
0.042479463 -0.011822506 -0.012159057 -0.051806353 -0.12516443 -0.013668093 -0.06025848 -0.05397956
-0.04543654 -0.043090556 -0.10958508 -0.04613024 -0.073767915 -0.038912356 -0.08020231 -0.019861888
-0.07710721 -0.0023872466 -0.022244357 0.013699575 -0.075045235 -0.04210665 -0.03311375 0.023693535
-0.00718777 -0.008249798 0.006893541 -0.03289017 -0.022713698 -0.06895567 0.021385597 -0.03203999
0.10613243 -0.08731809 -0.008869832 0.0883338 -0.07740864 0.0051318025 0.011812675 0.01443877
0.030930143 0.089083716 -0.03947346 0.02302286 0.11683032 -0.069324516 0.013128409 0.097853445
0.0014023498 0.017951168 -0.04323434 0.041425318 0.033193815 -0.08536423 -0.060459968 -0.027308851
-0.0034359244 -0.046985272 0.009023119 0.022767143 -0.0034604867 0.007882997 0.07592541 0.034170177
0.016201051 0.036236476 -0.0074812495 -0.057071514 0.04317353 -0.03156044 -0.047423445 0.0018409672
-0.06874092 -0.07606497 -0.004344025 -0.011877555 -9.74503e-05 0.121324874 0.01350088 -0.022768911
0.12462981 -0.014568401 -0.07780166 0.04934125 0.04910307 0.033490032 -0.07913502 0.015398365
00000000: 7a37 edbc 0c1c cb3c ba4d abbc 23f7 03bd
00000010: 001c e23c 58db 5c3d 2330 0dbd 0a3d 2bbc
00000020: fe3d 2a3d f135 3cbd 9ef6 6abd b75e 8d3d
00000030: 24fd 9b3c a1c4 b0ba 7a99 89bc 68b3 0a3d
00000040: 7ccd c03c e0d1 2f3d 12ce c73c 0f6e d23c
00000050: 3257 183d 90b5 2c3d 5b80 72bc 3de3 713b
00000060: 4e42 353c 3568 393d a31d 413c cc2f c5bc
00000070: d79d 2c3c 15cb 0e3d afbc 68bd da50 d6bc
00000080: 603a a33c d44e a1bd dc95 33bd b1e8 303d
00000090: 8c64 47bd d88f 1a3d 8600 1a3e deb1 683c
000000a0: 4246 c93c 3504 d63d d199 7abd e641 78bd
000000b0: 5697 5d3d 2eac 383b 2dda 36bd 5c7a ca3a
000000c0: 2cda 533d ab6c a2bb baea 3abc 9ca6 4d3c
000000d0: cc98 c7bc bb61 18bc 3530 b63c bee5 41bc
000000e0: 481c 8f3c 11d2 0fbd 6ac4 81bd ead3 b33d
000000f0: adcd 13bd 4eca b03c 1123 adbc ef74 adbd
00000100: c482 e9bd 1c1f a0bc 2725 93bd 5c91 f3bd
00000110: fd3d 233c 10e3 07be a560 16be 040e 003d
00000120: 6771 bdbd c57d 5bbd bacc 893a b96d 8fbd
00000130: d8a0 21bd a211 ad3d 1c3d febd 2caf 84bd
00000140: e79f dcbb 95db 48bc 2368 8c3c 82f7 eb3c
00000150: 5df6 493d 707d 83bc c9fa 00bd 5577 433d
00000160: 0919 63bc dcb8 d7bb 20c4 72bd 33a4 0dbd
00000170: ef22 6fbd ea3e bfbd 0897 3ebd a820 633b
00000180: 43c7 4bbd a796 abbd 1d72 90bd 31d1 8ebd
00000190: ed3a 083d 92ae 173d ee98 85bd 22f1 14bd
000001a0: bb5e 293d 51ec 73bd 0b22 fa3c dd8a 903d
000001b0: 4a94 34bd d81e ffbb d506 43bd 4ca8 52bc
000001c0: ce20 55bd f37f 273d 44ba c53b 0e2f 2abc
000001d0: 0891 c83b 2a9e 103c 2a7d 193d ad7d b43c
000001e0: cf63 9f3a 01bb 3b3c 2395 48bc 37f6 63bc
000001f0: a1b3 143d fa06 1f3c 4049 99bb d4ed 2dbd
00000200: 0120 5cbc 4f40 40bd 4eb7 d0bc 65bd 89bd
00000210: 7daf f2bc f074 6bbc f1fa 31bc 9f4e b63c
00000220: 7013 6f3d f01c 6d3d 4a55 f0bc 090f b73c
00000230: 0187 e33d 45d8 e2bc ea78 07bb 979a cb3d
00000240: 7144 f8bc 98c3 83bc 97f5 413d 33d8 0bbd
00000250: 2616 89bd 53bf bb3d b3ac 7ebd b661 3fbd
00000260: 77cd af3d 4835 56bd 037b bfbc 31ab d93c
00000270: ec63 3cbd 53f0 c73c 75f1 fc3c 21f6 f23c
00000280: 3e21 5bbd ca03 e13c 3e8c c73c a0af 93bc
00000290: f4b5 b4bb 6749 af3c fcc1 7a3d 0016 85bc
000002a0: f2fe 2d3d 2fb3 41bc c836 47bc e632 54bd
000002b0: 1b2b 00be 23f0 5fbc 99d1 76bd ac19 5dbd
000002c0: aa1b 3abd b97f 30bd 246e e0bd 10f3 3cbd
000002d0: a213 97bd 9062 1fbd 1c41 a4bd 66b5 a2bc
000002e0: 63ea 9dbd 5a73 1cbb cc39 b6bc 2f74 603c
000002f0: 51b1 99bd 0678 2cbd 49a2 07bd f218 c23c
00000300: 6387 ebbb 292a 07bc 37e3 e13b d8b7 06bd
00000310: 1412 babc a138 8dbd d930 af3c 5d3c 03bd
00000320: f65b d93d d4d3 b2bd c652 11bc 5ae8 b43d
00000330: 6c88 9ebd ae28 a83b f389 413c 9790 6c3c
00000340: 3661 fd3c 8671 b63d ecae 21bd 709a bc3c
00000350: bc44 ef3d 03fa 8dbd 8a18 573c 6367 c83d
00000360: 0dcf b73a 540e 933c 7e16 31bd 98ad 293d
00000370: 3df6 073d 71d3 aebd dfa4 77bd d0b6 dfbc
00000380: 3f2d 61bb a173 40bd b4d5 133c 2982 ba3c
00000390: 55c9 62bb b027 013c c87e 9b3d 07f6 0b3d
000003a0: 11b8 843c b36c 143d 4525 f5bb d2c3 69bd
000003b0: bad6 303d 8545 01bd 163f 42bd 9c4c f13a
000003c0: 0ac8 8cbd f3c7 9bbd 5358 8ebb 149a 42bc
000003d0: 3b5e ccb8 2d79 f83d cc32 5d3c de85 babc
000003e0: ea3d ff3d 4db0 6ebc 7a56 9fbd 0d1a 4a3d
000003f0: 4d20 493d d82c 093d 8b11 a2bd 6d49 7c3c

conv_relu_stack.3.bias f4 [32]
0.06978744 -0.013074366 -0.23827423 -0.016607337 -0.047867373 0.039270304 -0.04520587 -0.21764565
-0.029438037 -0.1096825 0.0024415685 -0.07096267 0.0025924025 -0.0878903 -0.010450031 -0.1157707
-0.07483807 0.021486174 -0.07769468 -0.012977879 0.020095453 -0.036363427 -0.012427402 -0.060031768
0.025697 0.10518188 0.0632132 -0.024313664 -0.07771387 -0.017266985 -0.17076677 -0.026598543
00000000: b8ec 8e3d de35 56bc 29fe 73be 1c0c 88bc
00000010: 9410 44bd e6d9 203d ca29 39bd 80de 5ebe
00000020: 0a28 f1bc 38a1 e0bd b902 203b e054 91bd
00000030: 4ce5 293b d4ff b3bd 9b36 2bbc 3019 edbd
00000040: b444 99bd c603 b03c 631e 9fbd 2ba1 54bc
00000050: 389f a43c d1f1 14bd 4d9c 4bbc dfe3 75bd
00000060: 8482 d23c 9969 d73d ec75 813d 732d c7bc
00000070: 7328 9fbd 7e73 8dbc 7cdd 2ebe 30e5 d9bc

linear_relu_stack.1.weight f4 [3, 10368]
-0.0006339432 0.0042405473 -0.010648296 -0.004247471 0.014439499 -0.0035149776 -0.020179275 -0.011219443
-0.012028374 0.004249452 0.02654439 -0.01108688 -0.017123487 -0.008024496 -0.01613747 -0.0037500185
-0.006455039 -0.013988289 -0.0034157948 -0.0020352404 -0.020472202 -0.0073466306 -0.00844563 -0.009157971
-0.0034475308 -0.021114552 -0.0033049607 -0.010977323 0.020937916 -0.007993721 0.025630133 -0.025972541
-0.012596603 0.006224889 0.0003711505 -0.027354358 -0.0076708766 -0.0014233934 -0.0012794044 -0.009826579
0.032923717 -0.026425805 0.0065363133 -0.02451522 0.023144968 0.005725626 0.029087866 -0.02766498
0.0111273285 -0.0033181347 -0.015055068 0.0050370083 0.008826318 0.01185455 -0.0022284433 -0.0042969165
-0.018337753 -0.014183144 0.012082387 0.028122596 -0.015469884 0.0047987634 0.00986688 -0.012046064
0.049382646 -0.021904727 -0.024420256 -0.0063665053 -0.02167803 0.011488556 0.005193491 0.014648643
-0.010006101 -0.00168622 -0.030296247 -0.0045171576 0.018993521 -0.018430294 -0.0074712154 -0.0037895052
0.030643206 -0.035306886 0.005026356 -0.020881563 -0.012216454 0.008041374 -0.011089738 0.026501928
0.016966997 0.0017162894 -0.0056199534 -0.0165738 -0.030221177 -0.01853829 0.016750596 -0.010403828
0.004178846 0.006125124 -0.026461076 0.029405713 0.048892822 -0.016506474 -0.01592114 -0.002047236
0.0035700502 0.0036496737 0.013945125 0.0032090808 0.0013264698 0.009789474 0.0066004833 -0.02447509
0.0029594172 0.024623198 -0.013560545 0.00158278 -0.004473054 0.036431327 0.022884833 0.02724599
-0.0002581895 0.015583608 -0.00968104 -6.3385705e-05 -0.0065885712 0.0044450285 -8.363784e-05 -0.010091546
-0.005101259 -0.047328793 -0.028878897 0.032553464 0.010692108 0.005650757 0.061310995 0.02158899
0.012103337 -0.028338885 -0.01007497 0.0024474422 -0.030248024 0.0016680871 -0.027823266 -0.0088710515
-0.011428252 -0.011593699 -0.032936566 -0.0010701133 -0.032425985 0.031578057 0.018956205 0.0021679688
-0.010997393 -0.032211483 -0.003086974 -0.021397652 0.0093812235 -0.0030890158 -0.03521286 0.012968994
0.012746805 0.025049305 0.010948231 -0.020520845 0.0075685373 0.010076691 0.024858639 0.050001986
0.032236174 -0.07656634 0.029478082 -0.0047235996 0.015597218 -0.019199535 -0.03568955 0.004486775
-0.03388032 -0.019425161 -0.005582733 0.00030101478 -0.025690053 -0.049639184 0.008203218 -0.018380003
0.019718708 -0.038579453 0.012723243 -0.04836009 0.009754885 0.02921154 0.005915545 0.014011338
-0.036395952 -0.019307492 -0.006406107 -0.0342178 0.014428326 0.013365882 -0.016473997 -0.012092444
-0.010115353 -0.037295256 0.04340033 -0.03604644 -0.023421004 0.0033818074 0.05451011 0.029064044
-0.0027559295 -0.022613749 -0.032626227 -0.0054748408 -0.0060202274 -0.027637897 -0.0037808786 -0.005487643
-0.01690349 0.019933678 -0.029720545 -0.00742694 0.010631999 0.011372759 0.017721726 0.011401395
0.07128427 0.061285105 -0.011587407 -0.038517807 0.018535791 -0.0077846306 -0.011828189 -0.035274297
0.006048181 -0.015567966 -0.020304084 -0.00016170778 -0.0342291 0.01461708 -0.026111698 -0.037240107
0.00060439954 -0.024457023 0.008489106 -0.0017665969 -0.027707333 -0.055466544 0.0060481145 -0.027607366
-0.015839668 -0.084156856 0.006945691 -0.007759945 -0.019900946 0.016967146 -0.03210278 -0.029104345
00000000: 352f 26ba 4af4 8a3b 3176 2ebc 5f2e 8bbb
00000010: a693 6c3c 8a5b 66bb 024f a5bc c1d1 37bc
00000020: a812 45bc fd3e 8b3b 9f73 d93c bfa5 35bc
00000030: 8e46 8cbc 2d79 03bc ba32 84bc dfc2 75bb
00000040: cb84 d3bb 232f 65bc 87db 5fbb ab61 05bb
00000050: 52b5 a7bc 01bc f0bb 8a5f 0abc 500b 16bc
00000060: f8ef 61bb 6df8 acbc 0a98 58bb 3bda 33bc
00000070: fe85 ab3c 19f8 02bc 49f6 d13c 5ec4 d4bc
00000080: fb61 4ebc 27fa cb3b fa96 c239 3f16 e0bc
00000090: fa5b fbbb 2891 baba b0b1 a7ba a9ff 20bc
000000a0: 05db 063d ee7a d8bc 922e d63b 25d4 c8bc
000000b0: 849a bd3c 089e bb3b ad49 ee3c aba1 e2bc
000000c0: 664f 363c 1075 59bb 88a9 76bc 7d0d a53b
000000d0: 439c 103c 9639 423c 130b 12bb 26cd 8cbb
000000e0: 0e39 96bc 6b60 68bc 34f5 453c 5c61 e63c
000000f0: 6575 7dbc f23e 9d3b b2a8 213c db5c 45bc
00000100: 7545 4a3d 8b71 b3bc fd0c c8bc 1e9e d0bb
00000110: 2096 b1bc 7f3a 3c3c 292e aa3b dd00 703c
00000120: a1f0 23bc 2804 ddba d62f f8bc aa04 94bb
00000130: 4d98 9b3c 21fb 96bc 19d1 f4bb 5959 78bb
00000140: 7607 fb3c f49d 10bd 21b4 a43b d00f abbc
00000150: 8627 48bc f8bf 033c bcb1 35bc 921a d93c
00000160: 5ffe 8a3c 1ef5 e03a 9627 b8bb c7c5 87bc
00000170: 6792 f7bc 9ddd 97bc 8c38 893c d174 2abc
00000180: b3ee 883b 44b5 c83b e6c4 d8bc 40e4 f03c
00000190: d743 483d 9638 87bc 0d6d 82bc ec2a 06bb
000001a0: 81f7 693b 5d2f 6f3b 187a 643c 714f 523b
000001b0: f1dc ad3a 0864 203c de48 d83b fc7f c8bc
000001c0: c8f2 413b 97b6 c93c 0c2d 5ebc 4975 cf3a
000001d0: b292 92bb 0439 153d f978 bb3c fb32 df3c
000001e0: 9c5d 87b9 6452 7f3c 3a9d 1ebc f1ed 84b8
000001f0: f1e4 d7bb 9aa7 913b b966 afb8 0357 25bc
00000200: 7628 a7bb d6db 41bd 7093 ecbc c856 053d
00000210: f42d 2f3c fc29 b93b 3d21 7b3d 65db b03c
00000220: 134d 463c f326 e8bc 7d11 25bc 4465 203b
00000230: b4ca f7bc b7a3 da3a 9eed e3bc e357 11bc
00000240: 903d 3bbc 80f3 3dbc 7ee8 06bd 0b43 8cba
00000250: 1cd1 04bd fe57 013d 0b4a 9b3c 7b14 0e3b
00000260: 692e 34bc 30f0 03bd d44e 4abb 214a afbc
00000270: b4b3 193c 1671 4abb 5c3b 10bd e77b 543c
00000280: fad7 503c 3334 cd3c 3660 333c 551b a8bc
00000290: 7e01 f83b b518 253c 58a4 cb3c e2ce 4c3d
000002a0: 140a 043d d0ce 9cbd 057c f13c 6dc8 9abb
000002b0: 798b 7f3c 5848 9dbc 352f 12bd cc05 933b
000002c0: 17c6 0abd 8421 9fbc 5cef b6bb 85d1 9d39
000002d0: f273 d2bc 7552 4bbd ca66 063c a991 96bc
000002e0: 2189 a13c 7d05 1ebd 2675 503c 3b15 46bd
000002f0: f4d2 1f3c 0a4d ef3c 30d7 c13b d08f 653c
00000300: ec13 15bd bf2a 9ebc 52ea d1bb f727 0cbd
00000310: c964 6c3c 93fc 5a3c 7af4 86bc 631f 46bc
00000320: deba 25bc e9c2 18bd 8bc4 313d 6fa5 13bd
00000330: 68dd bfbc 50a1 5d3b fe45 5f3d b817 ee3c
00000340: d39c 34bb 7840 b9bc 14a3 05bd 4b66 b3bb
00000350: 5445 c5bb df68 e2bc 9ec8 77bb b0d1 b3bb
00000360: 3079 8abc f44b a33c 8078 f3bc b05d f3bb
00000370: d631 2e3c cf54 3a3c 272d 913c ebcc 3a3c
00000380: 7dfd 913d 1706 7b3d 1cd9 3dbc d9c4 1dbd
00000390: 5fd8 973c 3716 ffbb 05cb 41bc c87b 10bd
000003a0: d22f c63b c810 7fbc c054 a6bc 1a90 29b9
000003b0: d033 0cbd 7a7c 6f3c 33e8 d5bc 1589 18bd
000003c0: 9170 1e3a 185a c8bc e415 0b3c 288d e7ba
000003d0: 7dfa e2bc e330 63bd 432f c63b d828 e2bc
000003e0: 31c2 81bc 6e5a acbd ae98 e33b 2347 febb
000003f0: 4f07 a3bc affe 8a3c 347e 03bd 3c6c eebc

linear_relu_stack.1.bias f4 [3]
-0.06755392 -0.02817277 0.08839311
00000000: b659 8abd 95ca e6bc 7207 b53d
