convnet/model.pt (torch, 147015 bytes, 6 tensors)

conv_relu_stack.0.weight f4 [16, 3, 3, 3]
0.12874801 -0.009827685 0.13176621 -0.0003615078 -0.08757025 -0.034481578 0.17844914 0.058228422
0.19234033 -0.10965271 0.07396002 0.09289994 0.09512637 0.0121532 -0.055723216 -0.12657107
0.07777223 -0.015555911 -0.03920727 -0.13832396 -0.15035774 -0.045437172 -0.041465096 -0.16841258
-0.165434 -0.1902551 -0.048262652 -0.14145042 0.054243088 -0.1338809 0.081874646 0.13462187
0.13256514 -0.07935523 0.10881042 0.04981993 0.1716439 -0.09392276 -0.09276343 -0.009178907
0.1693377 0.14258294 0.029362774 0.003934701 0.10831727 0.14808951 0.011742308 -0.14973892
0.10707104 -0.10348239 0.043425594 0.1514538 -0.16358235 0.18597548 0.14058542 -0.114634626
-0.103931114 -0.18344504 0.1852771 -0.029594198 -0.14102702 -0.07894175 0.14911239 0.1016497
-0.13671611 0.14041568 0.060176756 -0.075896256 -0.12026814 -0.089661874 0.16706455 -0.022875002
-0.16780002 -0.17161651 0.118411705 0.17098139 -0.08101066 0.020573111 0.12789461 0.14189395
0.15125866 0.17077687 -0.014959976 0.011731634 0.10137158 -0.07588981 -0.054398116 -0.014093341
-0.009281135 -0.01886812 0.15424938 -0.17685875 0.0030276696 -0.17397009 -0.16997205 -0.1592133
-0.061733197 -0.11547813 -0.071539946 -0.17902441 0.1419574 0.035016164 -0.0132794315 -0.13878265
-0.15345903 0.11078376 -0.13011289 0.13219012 0.06566729 -0.08517737 -0.08348054 0.0070050065
-0.1102994 0.07224036 -0.15527298 0.092542894 -0.1101261 0.17871116 -0.040368687 0.14829905
-0.1327981 0.120312795 -0.07201888 0.11281213 -0.1501334 0.13528728 -0.11392936 -0.06321713
-0.15676376 -0.10026812 0.14819883 0.06791301 -0.13151145 -0.102898054 0.13252056 -0.13177174
0.060774263 0.16198616 0.022742162 0.1486569 0.048531685 0.1572877 -0.11432932 -0.08073295
0.0322921 0.068935245 -0.12649755 0.1665054 -0.15637815 0.037316177 0.028660089 -0.15099917
0.1406581 0.03175187 -0.11153791 -0.04400149 -0.18307461 -0.041058633 0.098095804 -0.06277513
-0.13087414 -0.15007502 -0.0830491 0.049850885 -0.043390192 -0.16714084 -0.0077598076 0.077977836
0.123272166 0.05967671 -0.109910004 0.07531178 0.17920016 -0.105218805 0.04637453 0.01574377
-0.020321425 0.018236918 0.106284775 0.03557851 -0.13835214 0.0065527945 -0.00025643504 -0.1637143
0.06828939 0.08690318 0.057511505 -0.03973019 0.10726273 -0.016627977 0.11814323 -0.00089168694
0.14338997 -0.14297266 0.01888209 0.0925208 -0.027117725 -0.042243175 0.08545894 -0.18059932
-0.13996969 0.12153973 -0.08008369 -0.11673278 -0.13791823 -0.117638044 -0.05496218 -0.0122188255
-0.07280204 -0.08876807 -0.03757275 -0.014971873 0.085954055 0.13860227 0.10994576 0.17689233
-0.0134786405 0.05364486 -0.07553412 -0.14195164 0.18070932 -0.008709034 -0.046513308 -0.0136657115
0.1220129 -0.11072798 0.061398696 -0.01446571 0.018183071 -0.09235716 0.033496633 0.050838623
0.05764539 -0.1245135 0.044811193 -0.082990006 0.12032712 -0.16479725 -0.05004949 0.17100151
0.011730254 -0.14228357 -0.106260404 -0.16845845 -0.12027073 0.02091419 -0.16009204 0.0791104
-0.024167407 -0.1862906 -0.009044455 -0.04755036 0.13098334 0.0903824 0.07344275 0.109770015
00000000: 85d6 033e 4c04 21bc b9ed 063e c188 bdb9
00000010: 0858 b3bd 8e3c 0dbd 5fbb 363e ed80 6e3d
00000020: ddf4 443e 9a91 e0bd 5a78 973d 5342 be3d
00000030: 9dd1 c23d 371e 473c 073e 64bd d99b 01be
00000040: 0c47 9f3d 38de 7ebc cd97 20bd cca4 0dbe
00000050: 61f7 19be 541c 3abd 4ed7 29bd 5974 2cbe
00000060: 8867 29be 3cd2 42be 0faf 45bd 61d8 10be
00000070: 002e 5e3d 1318 09be e5ad a73d 51da 093e
00000080: 28bf 073e ff84 a2bd ffd7 de3d fc0f 4c3d
00000090: 6bc3 2f3e 935a c0bd c1fa bdbd 2063 16bc
000000a0: dd66 2d3e 4301 123e 338a f03c aaee 803b
000000b0: 72d5 dd3d c7a4 173e cf62 403c 2955 19be
000000c0: 1048 db3d 93ee d3bd 09df 313d b416 1b3e
000000d0: 2282 27be 5b70 3e3e a0f5 0f3e 8fc5 eabd
000000e0: d6d9 d4bd 04d9 3bbe 48b9 3d3e 886f f2bc
000000f0: 6369 10be 36ac a1bd ebb0 183e b82d d03d
00000100: 4fff 0bbe 21c9 0f3e e77b 763d 7f6f 9bbd
00000110: 254f f6bd a5a0 b7bd f812 2b3e 5b64 bbbc
00000120: c5d3 2bbe 3dbc 2fbe d681 f23d bf15 2f3e
00000130: ebe8 a5bd f188 a83c cef6 023e a64c 113e
00000140: 8de3 1a3e 22e0 2e3e b01a 75bc 0a36 403c
00000150: e79b cf3d 1e6c 9bbd 8fd0 5ebd c2e7 66bc
00000160: e70f 18bc 5191 9abc 8df3 1d3e 761a 35be
00000170: de6b 463b 3725 32be 270d 2ebe d008 23be
00000180: f3db 7cbd cc7f ecbd 8983 92bd 2d52 37be
00000190: 485d 113e 1c6d 0f3d f991 59bc 0a1d 0ebe
000001a0: 5d24 1dbe 99e2 e23d 503c 05be d95c 073e
000001b0: 927c 863d 7971 aebd d8f7 aabd 418a e53b
000001c0: a7e4 e1bd c1f2 933d e1ff 1ebe 2187 bd3d
000001d0: cb89 e1bd 0f00 373e a359 25bd b5db 173e
000001e0: 3afc 07be 8e66 f63d a27e 93bd 0c0a e73d
000001f0: 92bc 19be c088 0a3e cc53 e9bd fc77 81bd
00000200: ae86 20be 5f59 cdbd 6fc1 173e fa15 8b3d
00000210: f0aa 06be 37bc d2bd 78b3 073e 2cef 06be
00000220: 6fee 783d b3df 253e c54d ba3c 8439 183e
00000230: 29c9 463d 0710 213e 7e25 eabd 5157 a5bd
00000240: b944 043d ec2d 8d3d 9388 01be 6480 2a3e
00000250: 9821 20be d9d8 183d 90c8 ea3c 879f 1abe
00000260: ad08 103e 400e 023d fd6d e4bd e83a 34bd
00000270: e977 3bbe 192d 28bd 74e6 c83d 3f90 80bd
00000280: df03 06be 44ad 19be a615 aabd 7130 4c3d
00000290: eab9 31bd f826 2bbe fc45 febb d8b2 9f3d
000002a0: 1e76 fc3d 916f 743d 7f18 e1bd 103d 9a3d
000002b0: 3f80 373e f57c d7bd 38f3 3d3d 14f9 803c
000002c0: 1e79 a6bc 9765 953c d5ab d93d c6ba 113d
000002d0: 2fac 0dbe d3b8 d63b 2172 86b9 b9a4 27be
000002e0: 4fdb 8b3d 4bfa b13d 2f91 6b3d 20bc 22bd
000002f0: 90ac db3d 6537 88bc 14f5 f13d 19c0 69ba
00000300: d2d4 123e 6d67 12be 9dae 9a3c 8c7b bd3d
00000310: fe25 debc 2e07 2dbd 1905 af3d 07ef 38be
00000320: 3754 0fbe d2e9 f83d eb02 a4bd 9911 efbd
00000330: 703a 0dbe 37ec f0bd 0620 61bd 7831 48bc
00000340: 3c19 95bd 09cc b5bd e2e5 19bd 964c 75bc
00000350: ae08 b03d c1ed 0d3e 3e2b e13d 4323 353e
00000360: 84d5 5cbc b6ba 5b3d a2b1 9abd c55b 11be
00000370: dd0b 393e 56b0 0ebc bd84 3ebd 26e6 5fbc
00000380: e6e1 f93d 5ac5 e2bd 337d 7b3d 9601 6dbc
00000390: aaf4 943c c025 bdbd c433 093d 293c 503d
000003a0: 931d 6c3d ef00 ffbd f18b 373d aaf6 a9bd
000003b0: 116e f63d 9cc0 28be b200 4dbd 051b 2f3e
000003c0: 4030 403c c9b2 11be 0e9f d9bd 5f80 2cbe
000003d0: 8050 f6bd 3c54 ab3c 2bef 23be a204 a23d
000003e0: bafa c5bc f7c2 3ebe 322f 14bc 2bc4 42bd
000003f0: 7f20 063e 681a b93d 2769 963d 1acf e03d

conv_relu_stack.0.bias f4 [16]
0.014457223 0.10837386 0.055228885 -0.09427735 0.17407861 -0.1471051 -0.1701596 0.10571431
-0.13573043 -0.03552233 0.12998317 0.09274713 0.10001139 -0.059067015 0.021642758 -0.08978809
00000000: fddd 6c3c 1df3 dd3d af37 623d 7c14 c1bd
00000010: aa41 323e b8a2 16be 513e 2ebe bf80 d83d
00000020: ebfc 0abe dd7f 11bd 4f1a 053e 35f2 bd3d
00000030: c6d2 cc3d 41f0 71bd 274c b13c d1e2 b7bd

conv_relu_stack.3.weight f4 [32, 16, 3, 3]
-0.049461257 -0.018861985 0.07832195 0.052204695 -0.001666376 -0.012510725 0.017834406 0.064895675
-0.014896763 0.05186411 0.079311706 0.0624875 0.056193642 -0.045966405 -0.01109753 0.012314653
0.057198584 0.030091047 -0.05288564 0.07580501 -0.054065213 -0.038183328 -0.04615498 0.009766156
-0.029346703 0.06405635 0.028530544 0.04366133 0.06927893 0.050077822 -0.005874564 0.019604586
-0.063656695 -0.07660946 0.08057857 0.036326718 -0.07709458 -0.03640452 0.07992398 -0.059384648
-0.08478247 -0.057263494 0.052093923 0.04510754 -0.014003589 0.035852976 0.03965008 -0.06282453
0.06126661 -0.06429956 0.07633207 0.079868235 -0.07227908 0.05433578 0.010061747 0.052653138
-0.024850752 0.072067015 0.067689024 0.02510482 -0.02663545 -0.007632522 0.03140267 0.027544774
-0.042731505 0.020666774 -0.0333204 0.07730667 -0.0741569 0.05076692 -0.08299579 -0.03814519
0.033131674 -0.0028151996 0.0671483 -0.046547227 0.05330842 -0.0017107731 0.080601476 -0.054206595
-0.04906152 -0.03226227 -0.0109523665 -0.04416765 0.005116513 0.04005645 -4.2948912e-05 0.076107316
0.06457789 0.052900072 -0.009275648 0.04137597 -0.045361675 -0.06424918 -0.010241732 -0.01382114
-0.037249528 -0.010512135 0.05148995 -0.0038911516 -0.011196583 -0.027902588 0.016241392 -0.04773301
-0.023127293 -0.038505428 -0.060112182 -0.0024001407 0.064746775 -0.018512798 -0.060785156 -0.00674454
-0.015851097 -0.015059713 0.04820802 -0.039189722 0.033047576 0.004727244 -0.03804731 0.0070533575
0.07503582 -0.043378428 0.052960042 0.0064532324 -0.039177153 0.04710272 0.009169105 0.019295925
0.07049225 -0.014543722 -0.08051648 -0.056064308 0.0024806825 0.04140444 0.049985427 -0.04133964
0.008108744 -0.03236736 -0.0748789 0.08207069 -0.05188755 -0.03848011 0.042918257 0.055953894
-0.040986765 0.029590927 -0.06497717 0.0176581 0.048696775 0.034686707 0.057106867 -0.055102788
-0.023496412 -0.011750901 -0.020640124 -0.04758026 -0.044774286 -0.06268264 -0.03601511 -0.021809733
0.029206809 -0.07378952 -0.07453763 -0.00095113245 -0.07214699 0.074441865 -0.03495637 0.053329267
-0.0058555263 0.048814587 0.030113814 0.045922507 0.05628726 0.05465698 -0.0062368223 -0.021135345
-0.07355506 0.07096518 -0.0635906 0.0071115377 0.0123767005 0.030655827 -0.066053696 0.046954334
0.033774428 0.035528693 0.021071022 -0.07138497 0.059293207 0.03382571 0.06956734 -0.07090782
-0.0075224726 0.011319636 -0.022010887 0.021953328 0.01607563 -0.0339393 -0.04028689 -0.01610539
-0.0335645 0.040712904 -0.036982596 -0.021296313 -0.05276578 0.068665914 -0.012812128 0.029387115
0.066827945 -0.057958048 0.040347025 0.0009947156 0.06728232 -0.06686543 0.062325507 -0.030464545
0.058795072 0.08294023 -0.004402061 -0.016491571 -0.02711437 -0.078392886 0.07374545 -0.056264278
-0.0627749 0.06721274 0.08197461 0.018180778 -0.04026136 0.009376453 0.029567884 0.05125612
-0.059533983 0.02585556 0.04214703 0.0034406935 0.069688365 -0.077754594 -0.00690638 -0.008237031
0.011562296 0.05732011 -0.027088845 -0.008903723 0.03644524 0.016981345 -0.06720092 0.047196742
-0.010887897 0.012946228 -0.019130047 -0.019494997 0.044263627 0.049284827 0.031230617 -0.0011156115
00000000: e397 4abd 7384 9abc 4267 a03d 97d4 553d
00000010: 4d6a daba c9f9 4cbc 7619 923c 06e8 843d
00000020: 8d11 74bc 766f 543d 2d6e a23d e5f2 7f3d
00000030: 4e2b 663d 4547 3cbd 6ad2 35bc 66c3 493c
00000040: 1049 6a3d 8081 f63c 9d9e 58bd a83f 9b3d
00000050: 7c73 5dbd 1f66 1cbd 010d 3dbd 3a02 203c
00000060: 7f68 f0bc fa2f 833d e3b8 e93c 39d6 323d
00000070: 1de2 8d3d 671e 4d3d 6a7f c0bb cc99 a03c
00000080: 715e 82bd 6ce5 9cbd 6106 a53d 53cb 143d
00000090: c3e3 9dbd e81c 15bd 2faf a33d 513d 73bd
000000a0: 6ea2 adbd 208d 6abd 7060 553d afc2 383d
000000b0: 4f6f 65bc 92da 123d 1f68 223d 26aa 80bd
000000c0: b2f2 7a3d 7daf 83bd fd53 9c3d f591 a33d
000000d0: 0e07 94bd 328f 5e3d 07da 243c d1aa 573d
000000e0: ce93 cbbc df97 933d 8ba0 8a3d a0a8 cd3c
000000f0: 9632 dabc 3c1a fabb 16a0 003d 94a5 e13c
00000100: 3b07 2fbd 5e4d a93c f97a 08bd f652 9e3d
00000110: 93df 97bd f9f0 4f3d b2f9 a9bd 213e 1cbd
00000120: 14b5 073d 367f 38bb 0c85 893d 4ea8 3ebd
00000130: ee59 5a3d 053c e0ba 6312 a53d bc07 5ebd
00000140: bbf4 48bd 7125 04bd 8e71 33bc 23e9 34bd
00000150: 6ca8 a73b 3b12 243d 0b24 34b8 27de 9b3d
00000160: 6a41 843d bfad 583d e3f8 17bc d979 293d
00000170: 2acd 39bd 1395 83bd f0cc 27bc 1072 62bc
00000180: f692 18bd 173b 2cbc 20e7 523d b102 7fbb
00000190: df71 37bc f893 e4bc ab0c 853c b083 43bd
000001a0: 7375 bdbc deb7 1dbd 3138 76bd ae4b 1dbb
000001b0: f599 843d 27a8 97bc dbf9 78bd 4d01 ddbb
000001c0: 29da 81bc 04bd 76bc c675 453d 6785 20bd
000001d0: e55c 073d ffe6 9a3b 7fd7 1bbd da1f e73b
000001e0: 61ac 993d 94ad 31bd a1ec 583d a375 d33b
000001f0: 3978 20bd c8ee 403d 043a 163c 7d12 9e3c
00000200: 3e5e 903d cb48 6ebc d3e5 a4bd b0a3 65bd
00000210: f292 223b b497 293d 85bd 4c3d c153 29bd
00000220: 8ada 043c a393 04bd 1c5a 99bd ae14 a83d
00000230: 0a88 54bd 529d 1dbd 0ecb 2f3d e92f 653d
00000240: bde1 27bd ac68 f23c c012 85bd b8a7 903c
00000250: 4576 473d a613 0e3d e4e8 693d 76b3 61bd
00000260: 8c7b c0bc da86 40bc 7a15 a9bc 85e3 42bd
00000270: 3e65 37bd c25f 80bd 9484 13bd 53aa b2bc
00000280: 1e43 ef3c f61e 97bd 2fa7 98bd 6b55 79ba
00000290: cdc1 93bd fa74 983d 692e 0fbd ca6f 5a3d
000002a0: b7df bfbb cef1 473d 3fb1 f63c 3d19 3c3d
000002b0: 788d 663d ffdf 5f3d 425e ccbb 0824 adbc
000002c0: 09a4 96bd 3156 913d ca3b 82bd e707 e93b
000002d0: a5c7 4a3c ee21 fb3c 2947 87bd 3053 403d
000002e0: 0e57 0a3d 8986 113d 239d ac3c 4832 92bd
000002f0: 6fdd 723d d48c 0a3d 5279 8e3d 1e38 91bd
00000300: 137f f6bb ff75 393c 2d50 b4bc 77d7 b33c
00000310: 0ab1 833c ef03 0bbd de03 25bd 73ef 83bc
00000320: ee7a 09bd 93c2 263d 107b 17bd 9b75 aebc
00000330: ee20 58bd b7a0 8c3d f6e9 51bc 3fbd f03c
00000340: 17dd 883d 6b65 6dbd ec42 253d 1e61 823a
00000350: 50cb 893d bef0 88bd 0849 7f3d c890 f9bc
00000360: 1ad3 703d 91dc a93d 2a3f 90bb 5519 87bc
00000370: f51e debc 738c a0bd db07 973d 5f75 66bd
00000380: 2090 80bd d5a6 893d 4ee2 a73d dbef 943c
00000390: 19e9 24bd b29f 193c 5938 f23c f0f1 513d
000003a0: e8d9 73bd 0acf d33c 5da2 2c3d 427d 613b
000003b0: c6b8 8e3d cd3d 9fbd ea4e e2bb 9df4 06bc
000003c0: c96f 3d3c 7ec8 6a3d 6de9 ddbc ece0 11bc
000003d0: 9b47 153d 761c 8b3c a3a0 89bd 5f51 413d
000003e0: 2663 32bc 6a1c 543c 9eb6 9cbc f9b3 9fbc
000003f0: c74d 353d e3de 493d 5ad7 ff3c b639 92ba

conv_relu_stack.3.bias f4 [32]
0.07401022 -0.05278886 -0.03430146 -0.018787002 0.038612112 0.00086037413 -0.06569968 0.022496728
-0.029791044 -0.050738964 0.07309638 0.0531763 -0.014386392 -0.021855572 -0.014511963 0.0030097296
0.011917303 0.061154395 -0.017954381 -0.06612146 0.059361067 -0.06275018 0.050693862 0.07737561
0.010623409 -0.057345968 0.072479345 0.04570104 0.032572016 -0.06603226 0.055486795 -0.0395416
00000000: ac92 973d 2239 58bd b07f 0cbd 33e7 99bc
00000010: bc27 1e3d bb8a 613a 8e8d 86bd 0f4b b83c
00000020: 590c f4bc a9d3 4fbd 8eb3 953d 64cf 593d
00000030: e7b4 6bbc 750a b3bc 96c3 6dbc e23e 453b
00000040: cb40 433c 087d 7a3d 1115 93bc b06a 87bd
00000050: 9724 733d 2b83 80bd 5ea4 4f3d 1b77 9e3d
00000060: cf0d 2e3c 9be3 6abd 0d70 943d 0431 3b3d
00000070: 3c6a 053d ec3b 87bd 1f46 633d 5ff6 21bd

linear_relu_stack.1.weight f4 [3, 10368]
0.003115501 0.00044102827 -0.003985534 0.0060504843 0.00624983 0.0060236347 0.010290497 -0.0004984201
0.00029756944 -0.0007628513 -0.0044958633 0.0002469349 -0.0037020335 0.01009022 -0.0064780535 0.0011954141
0.0018756831 -0.002327972 -0.008687669 0.0017486571 0.0052215396 -0.004958886 -0.006853374 -0.001973359
0.006036749 0.0019744362 0.0046960805 0.0021670791 0.005782307 -0.008600897 0.004982141 -0.006339194
0.0053447047 -0.0007385687 0.007305754 0.0015607469 0.007149103 0.009293208 0.002972412 0.0037429999
-0.002189971 0.0015508163 -0.005604213 -0.005161964 -0.004635905 -0.0035454063 -0.0029203661 0.0103779575
-0.0022226532 0.0014027612 -0.0046889535 -0.007916442 0.010961553 -0.0039336984 0.0019400577 0.00624784
-0.008228406 -0.002254309 -0.0031289747 0.001480436 -0.0029732736 -0.0032197246 0.005528201 -0.0064828605
-0.004653248 0.0045589376 0.0025537303 0.005966515 0.0071685924 -0.008217349 -0.0038613987 0.0033659372
-0.005364264 -0.0032669357 0.004807999 0.0045167943 -0.008759188 0.005453837 -0.004479643 0.0028337978
-0.00952037 -0.0003773036 0.005638938 -0.0070273355 0.008377198 0.006343629 0.0023810023 0.009539959
0.00646041 -0.005520603 -0.008825973 -0.0024003931 -0.009310843 -0.0047223405 -0.0071738926 -0.010055397
0.0015752722 0.001866255 0.00026019884 -0.008389303 -0.003139387 -0.007353773 0.0010709545 0.00234264
-0.0043748016 -0.0025568798 -0.0058256416 -0.0019017807 0.00023767336 -0.0060463655 -0.0026024536 0.010056296
-0.004327425 -0.0037458683 0.0035256946 0.0019670022 0.00055820576 0.007674151 -0.0071751988 -0.0053131385
-0.0058312756 -0.0042462396 0.004607711 -0.0022958752 0.0071125724 -0.0041964003 0.002333214 -0.00036596836
-0.0024338856 -0.006477136 0.0076972083 0.0015284619 0.0024599903 -0.000118887605 -0.008147748 -0.0015189195
-0.00053782173 0.004297123 -0.0019161601 0.0047561885 0.0018712772 -0.0058511975 0.0018415161 0.008329853
-0.0065930677 0.003178126 0.003126166 -0.004120222 -0.004373053 0.007982104 -0.008412908 -0.008781573
0.004145202 -0.011068656 -0.0050907657 0.0039664246 -0.010915676 0.0065771593 -0.0057845484 -0.004361298
0.0016671488 -0.0034988318 0.005600128 0.0014621064 0.0067436625 -0.0048293313 0.0010884502 0.002857281
-0.0034111405 -0.010993758 -0.0015334757 -4.7729613e-05 -0.01307856 0.00022400204 0.007963126 0.003940425
0.0061504575 0.0051348377 0.008142589 -0.0050552436 0.0053855306 -0.0063604326 -0.009048241 -0.006776022
-0.0004825638 -0.00730747 -0.00536923 0.00029384164 -0.013907686 0.0004269413 -0.01389371 -0.008128238
-0.006040844 -0.0046059988 -0.005000636 -0.0043601273 0.00032027985 0.0038954094 0.0054615154 -0.008355591
-0.004974191 -0.00499477 0.0070124175 -0.0063907895 -0.008284003 -0.0044616023 -0.012994866 -0.0072862427
0.0017100036 0.0031304858 0.0058675734 -0.0033894684 0.008936845 -0.008100602 0.002882842 0.009479145
0.00978032 0.00017493738 -0.00040918007 -0.010385687 0.0066458522 -0.0013091137 0.006591292 -0.0017474754
-0.0029272623 0.0044562714 -0.011682374 0.0034203946 0.0035892443 -0.0047079637 -0.00076277525 -0.0015643255
0.0055329697 0.0023984178 -0.005955983 0.006357552 -0.0072582113 0.0014037992 0.0068304464 0.0026165114
-0.0033274186 0.0016226108 -0.008087433 -0.0004939368 0.0018578304 -0.00018920029 4.3115753e-05 0.0033451084
-0.009694022 0.0045614904 0.010738246 0.0012476661 0.011350504 -0.0032244765 -0.0077289776 0.0002671543
00000000: 6f2d 4c3b d039 e739 1599 82bb 2443 c63b
00000010: 60cb cc3b e961 c53b 7999 283c 68a8 02ba
00000020: 1803 9c39 16fa 47ba 0952 93bb 0b77 8139
00000030: d19d 72bb 7351 253c da45 d4bb 71af 9c3a
00000040: 7bd9 f53a e490 18bb ba56 0ebc 3233 e53a
00000050: 7319 ab3b 277e a2bb 4592 e0bb 7853 01bb
00000060: eccf c53b 8b65 013b 94e1 993b 8e05 0e3b
00000070: 8279 bd3b c7ea 0cbc 3a41 a33b 03b9 cfbb
00000080: a222 af3b 829c 41ba 1b65 ef3b fa91 cc3a
00000090: 0643 ea3b 8a42 183c cccc 423b 1e4d 753b
000000a0: 9e85 0fbb c344 cb3a 8ca3 b7bb b125 a9bb
000000b0: cae8 97bb 0c5a 68bb 9d63 3fbb 4f08 2a3c
000000c0: efa9 11bb dbdc b73a cba5 99bb f7b3 01bc
000000d0: 1698 333c 41e6 80bb 8949 fe3a aeba cc3b
000000e0: 70d0 06bc 07bd 13bb 7c0f 4dbb 300b c23a
000000f0: 41db 42bb 0402 53bb e925 b53b 2d6e d4bb
00000100: 467a 98bb 2463 953b 7c5c 273b c182 c33b
00000110: 83e6 ea3b 0fa2 06bc 850f 7dbb 0e97 5c3b
00000120: b5c6 afbb 161a 56bb 6b8c 9d3b 9e01 943b
00000130: b282 0fbc 1ab6 b23b f8c9 92bb 3db7 393b
00000140: 53fb 1bbc d5d0 c5b9 d7c6 b83b 9045 e6bb
00000150: 8440 093c 38de cf3b 970a 1c3b 7d4d 1c3c
00000160: d9b1 d33b 2de6 b4bb d09a 10bc ea4f 1dbb
00000170: 828c 18bc ddbd 9abb f912 ebbb 64bf 24bc
00000180: 5d79 ce3a 209d f43a 4c6b 8839 4a73 09bc
00000190: 2cbe 4dbb ebf7 f0bb 455f 8c3a fa86 193b
000001a0: 7f5a 8fbb 5391 27bb 06e5 bebb 2c45 f9ba
000001b0: f537 7939 9720 c6bb ed8d 2abb 2ac3 243c
000001c0: 12cd 8dbb 3e7d 75bb 570f 673b d2e8 003b
000001d0: 8e54 123a 7277 fb3b ee1d ebbb d619 aebb
000001e0: 4914 bfbb 0a24 8bbb 48fc 963b 6576 16bb
000001f0: 9510 e93b f581 89bb d6e8 183b 71df bfb9
00000200: d381 1fbb 283e d4bb dd38 fc3b ac56 c83a
00000210: ca37 213b 4c53 f9b8 227e 05bc 7b16 c7ba
00000220: 9bfc 0cba e1ce 8c3b aa27 fbba cdd9 9b3b
00000230: a545 f53a 67bb bfbb 075f f13a f079 083c
00000240: a90a d8bb 1b48 503b 5de0 4c3b ed02 87bb
00000250: d44b 8fbb 5fc7 023c 4bd6 09bc 96e0 0fbc
00000260: 7ad4 873b 4f59 35bc 70d0 a6bb c8f8 813b
00000270: aad7 32bc 3685 d73b 4f8c bdbb 38e9 8ebb
00000280: 3b84 da3a a84c 65bb 4781 b73b 26a4 bf3a
00000290: f1f9 dc3b 5e3f 9ebb 54aa 8e3a 3841 3b3b
000002a0: 718d 5fbb 2a1f 34bc e8fe c8ba 4831 48b8
000002b0: 7547 56bc 17e2 6a39 c577 023c ae1e 813b
000002c0: c789 c93b 2442 a83b 7e68 053c 75a6 a5bb
000002d0: 1b79 b03b 2d6b d0bb 133f 14bc 6409 debb
000002e0: 9e00 fdb9 8073 efbb 5ef0 afbb c20e 9a39
000002f0: 10dd 63bc 17d7 df39 72a2 63bc 4d2c 05bc
00000300: 46f2 c5bb ebed 96bb 60dc a3bb 66df 8ebb
00000310: 3ceb a739 204a 7f3b 83f6 b23b e4e5 08bc
00000320: 8afe a2bb 2bab a3bb 6cc8 e53b d469 d1bb
00000330: a0b9 07bc a232 92bb 6be8 54bc 6fc1 eebb
00000340: 3322 e03a d628 4d3b c644 c03b d821 5ebb
00000350: d86b 123c 63b8 04bc 10ee 3c3b 6a4e 1b3c
00000360: a33d 203c 656f 3739 3887 d6b9 bb28 2abc
00000370: 73c5 d93b 9196 abba c4fb d73b 8b0b e5ba
00000380: 50d7 3fbb ea05 923b 6e67 3fbc b328 603b
00000390: 8739 6b3b 4345 9abb fbf4 47ba 0e0a cdba
000003a0: ea4d b53b c62e 1d3b 682a c3bb 0353 d03b
000003b0: 4ad6 edbb afff b73a f0d1 df3b c779 2b3b
000003c0: d210 5abb c9ad d43a 2781 04bc 8a7b 01ba
000003d0: 7282 f33a 1164 46b9 30d7 3438 9b39 5b3b
000003e0: add3 1ebc 8e78 953b 78ef 2f3c ba88 a33a
000003f0: 77f7 393c bd51 53bb 5d43 fdbb d810 8c39

linear_relu_stack.1.bias f4 [3]
0.0065622632 0.0022279776 -0.013971274
00000000: 4108 d73b 4303 123b c5e7 64bc
